linspec1_weights.npy (npy, 464 bytes, 1 tensors)

array f4 [3, 28]
0.13215256 -0.055487767 -0.12836787 0.0100575425 0.0756518 -0.18580958 -0.10679464 -0.11972955
-0.15353942 0.007617848 0.083775215 -0.0932036 0.14819245 0.11345941 -0.13763195 -0.18056558
0.0002778432 0.13547845 -0.06254381 0.097443216 -0.15273848 -0.018196512 -0.079072475 -0.01847012
-0.023537088 0.13381061 0.058426328 -0.1623196 -0.09792062 -0.16319405 -0.16385566 0.17865157
-0.029002227 -0.029476698 0.1281788 0.102026254 -0.014813582 0.18500419 0.017267004 0.15719952
0.08917741 -0.16563013 -0.09957177 0.016292537 -0.027595721 0.15159781 0.08047726 0.085546836
-0.09724169 -0.007099972 0.045761295 -0.07353902 -0.057884634 -0.11617345 0.16883348 -0.176776
-0.17295346 -0.132549 0.09354496 0.06978828 0.048088387 0.19278541 -0.09991135 0.13771278
-0.088702194 -0.09419431 -0.08089048 -0.13505663 -0.0103035085 0.112912595 0.19603078 -0.019300323
-0.0124026565 -0.18558301 0.17756939 0.09351195 -0.031139221 0.08834817 0.13314757 -0.060187224
0.0023434483 -0.04237838 0.16576795 0.20687512
00000000: 0053 073e 2447 63bd de72 03be 64c8 243c
00000010: 55ef 9a3d de44 3ebe 26b7 dabd c434 f5bd
00000020: 7039 1dbe 249f f93b 5792 ab3d 87e1 bebd
00000030: c3bf 173e 685d e83d 64ef 0cbe 2fe6 38be
00000040: 7cab 9139 ddba 0a3e f816 80bd 4f90 c73d
00000050: 7a67 1cbe da10 95bc c0f0 a1bd a64e 97bc
00000060: dad0 c0bc a605 093e 7250 6f3d 1c37 26be
00000070: 9b8a c8bd 571c 27be c7c9 27be 70f0 363e
00000080: 1496 edbc 1e79 f1bc 4e41 033e 24f3 d03d
00000090: abb4 72bc bd71 3d3e 8873 8d3c e9f8 203e
000000a0: a5a2 b63d f29a 29be 49ec cbbd ed77 853c
000000b0: 6c10 e2bc 753c 1b3e 43d1 a43d 2e33 af3d
000000c0: a726 c7bd e2a6 e8bb 3270 3b3d a09b 96bd
000000d0: 7018 6dbd 59ec edbd afe2 2c3e c504 35be
000000e0: b61a 31be edba 07be 8094 bf3d 28ed 8e3d
000000f0: 54f8 443d 8a69 453e 529e ccbd 9404 0d3e
00000100: 7fa9 b5bd f2e8 c0bd e8a9 a5bd 494c 0abe
00000110: 0cd0 28bc b83e e73d 4bbc 483e b61b 9ebc
00000120: 8334 4bbc 7909 3ebe c0d4 353e 3183 bf3d
00000130: ae17 ffbc e3ef b43d d657 083e e186 76bd
00000140: 8a94 193b f494 2dbd 13bf 293e 12d7 533e
